Early stopping: patience = 5, val_interval = 10, delta = 0.001
==> use gpu id: 0
==> Obtain supervised dataset
train dataset size (samples × weight × height × channel): (40000, 3, 32, 32)
valid dataset size (samples × weight × height × channel): (10000, 3, 32, 32)
test dataset size (samples × weight × height × channel): (10000, 3, 32, 32)
labels name: ['airplane', 'automobile', 'bird', 'cat', 'deer', 'dog', 'frog', 'horse', 'ship', 'truck']

==> Build network
network structure: LeNet5(
  (C1): Sequential(
    (0): Conv2d(3, 6, kernel_size=(5, 5), stride=(1, 1))
    (1): ReLU()
  )
  (S2): Sequential(
    (0): MaxPool2d(kernel_size=(2, 2), stride=2, padding=0, dilation=1, ceil_mode=False)
  )
  (C3): Sequential(
    (0): Conv2d(6, 16, kernel_size=(5, 5), stride=(1, 1))
    (1): ReLU()
  )
  (S4): Sequential(
    (0): MaxPool2d(kernel_size=(2, 2), stride=2, padding=0, dilation=1, ceil_mode=False)
  )
  (C5): Sequential(
    (0): Conv2d(16, 120, kernel_size=(5, 5), stride=(1, 1))
    (1): ReLU()
  )
  (F6): Sequential(
    (0): Flatten(start_dim=1, end_dim=-1)
    (1): Linear(in_features=120, out_features=84, bias=True)
    (2): ReLU()
    (3): Linear(in_features=84, out_features=10, bias=True)
  )
  (LeNet5): Sequential(
    (0): Sequential(
      (0): Conv2d(3, 6, kernel_size=(5, 5), stride=(1, 1))
      (1): ReLU()
    )
    (1): Sequential(
      (0): MaxPool2d(kernel_size=(2, 2), stride=2, padding=0, dilation=1, ceil_mode=False)
    )
    (2): Dropout(p=0.3, inplace=False)
    (3): Sequential(
      (0): Conv2d(6, 16, kernel_size=(5, 5), stride=(1, 1))
      (1): ReLU()
    )
    (4): Sequential(
      (0): MaxPool2d(kernel_size=(2, 2), stride=2, padding=0, dilation=1, ceil_mode=False)
    )
    (5): Dropout(p=0.3, inplace=False)
    (6): Sequential(
      (0): Conv2d(16, 120, kernel_size=(5, 5), stride=(1, 1))
      (1): ReLU()
    )
    (7): Sequential(
      (0): Flatten(start_dim=1, end_dim=-1)
      (1): Linear(in_features=120, out_features=84, bias=True)
      (2): ReLU()
      (3): Linear(in_features=84, out_features=10, bias=True)
    )
  )
)
==> Build loss and optimizer
==> Training with validation dataset
Epoch: 1; loss: 1.8701328260721348
Epoch: 1; val_precision: 0.407
Epoch: 2; loss: 1.5962504402910778
Epoch: 2; val_precision: 0.4789
Epoch: 3; loss: 1.523124969262871
Epoch: 3; val_precision: 0.4705
Epoch: 4; loss: 1.4711323935065053
Epoch: 4; val_precision: 0.4979
Epoch: 5; loss: 1.4390662427571752
…
