Early stopping: patience = 5, val_interval = 10, delta = 0.001
==> use gpu id: 0
==> Obtain supervised dataset
train dataset size (samples × weight × height × channel): (40000, 3, 32, 32)
valid dataset size (samples × weight × height × channel): (10000, 3, 32, 32)
test dataset size (samples × weight × height × channel): (10000, 3, 32, 32)
labels name: ['airplane', 'automobile', 'bird', 'cat', 'deer', 'dog', 'frog', 'horse', 'ship', 'truck']

==> Build network
network structure: LeNet5(
  (C1): Sequential(
    (0): Conv2d(3, 6, kernel_size=(5, 5), stride=(1, 1))
    (1): ReLU()
  )
  (S2): Sequential(
    (0): AvgPool2d(kernel_size=(2, 2), stride=2, padding=0)
    (1): Conv2d(6, 6, kernel_size=(1, 1), stride=(1, 1))
    (2): Sigmoid()
  )
  (C3): Sequential(
    (0): Conv2d(6, 16, kernel_size=(5, 5), stride=(1, 1))
    (1): ReLU()
  )
  (S4): Sequential(
    (0): AvgPool2d(kernel_size=(2, 2), stride=2, padding=0)
    (1): Conv2d(16, 16, kernel_size=(1, 1), stride=(1, 1))
    (2): Sigmoid()
  )
  (C5): Sequential(
    (0): Conv2d(16, 120, kernel_size=(5, 5), stride=(1, 1))
    (1): ReLU()
  )
  (F6): Sequential(
    (0): Flatten(start_dim=1, end_dim=-1)
    (1): Linear(in_features=120, out_features=84, bias=True)
    (2): ReLU()
    (3): Linear(in_features=84, out_features=10, bias=True)
  )
  (LeNet5): Sequential(
    (0): Sequential(
      (0): Conv2d(3, 6, kernel_size=(5, 5), stride=(1, 1))
      (1): ReLU()
    )
    (1): Sequential(
      (0): AvgPool2d(kernel_size=(2, 2), stride=2, padding=0)
      (1): Conv2d(6, 6, kernel_size=(1, 1), stride=(1, 1))
      (2): Sigmoid()
    )
    (2): Sequential(
      (0): Conv2d(6, 16, kernel_size=(5, 5), stride=(1, 1))
      (1): ReLU()
    )
    (3): Sequential(
      (0): AvgPool2d(kernel_size=(2, 2), stride=2, padding=0)
      (1): Conv2d(16, 16, kernel_size=(1, 1), stride=(1, 1))
      (2): Sigmoid()
    )
    (4): Sequential(
      (0): Conv2d(16, 120, kernel_size=(5, 5), stride=(1, 1))
      (1): ReLU()
    )
    (5): Sequential(
      (0): Flatten(start_dim=1, end_dim=-1)
      (1): Linear(in_features=120, out_features=84, bias=True)
      (2): ReLU()
      (3): Linear(in_features=84, out_features=10, bias=True)
    )
  )
)
==> Build loss and optimizer
==> Training with validation dataset
Epoch: 1; loss: 2.2986299514198762
Epoch: 1; val_precision: 0.1532
Epoch: 2; loss: 2.0987703116963523
Epoch: 2; val_precision: 0.1966
Epoch: 3; loss: 2.070170644090044
Epoch: 3; val_precision: 0.2217
Epoch: 4; loss: 2.050490882613962
Epoch: 4; val_precision: 0.2345
Epoch: 5; loss: 2.040938299479816
…
